…
            "shape": []
        },
        {
            "__ndarray__": 0.9455000162124634,
            "dtype": "float32",
            "shape": []
        },
        {
            "__ndarray__": 0.9545999765396118,
            "dtype": "float32",
            "shape": []
        },
        {
            "__ndarray__": 0.9603000283241272,
            "dtype": "float32",
            "shape": []
        },
        {
            "__ndarray__": 0.9648000001907349,
            "dtype": "float32",
            "shape": []
        }
    ],
    "model_deep": "DeepMNISTNet(\n  (model): Sequential(\n    (0): Linear(in_features=784, out_features=784, bias=True)\n    (1): NoResidual(\n      (model): Sequential(\n        (0): LinAct(\n          (block): Sequential(\n            (0): Linear(in_features=784, out_features=784, bias=True)\n            (1): Sigmoid()\n          )\n        )\n        (1): LinAct(\n          (block): Sequential(\n            (0): Linear(in_features=784, out_features=784, bias=True)\n            (1): Sigmoid()\n          )\n        )\n      )\n    )\n    (2): NoResidual(\n      (model): Sequential(\n        (0): LinAct(\n          (block): Sequential(\n            (0): Linear(in_features=784, out_features=784, bias=True)\n            (1): Sigmoid()\n          )\n        )\n        (1): LinAct(\n          (block): Sequential(\n            (0): Linear(in_features=784, out_features=784, bias=True)\n            (1): Sigmoid()\n          )\n        )\n      )\n    )\n    (3): NoResidual(\n      (model): Sequential(\n        (0): LinAct(\n          (block): Sequential(\n            (0): Linear(in_features=784, out_features=784, bias=True)\n            (1): Sigmoid()\n          )\n        )\n        (1): LinAct(\n          (block): Sequential(\n            (0): Linear(in_features=784, out_features=784, bias=True)\n            (1): Sigmoid()\n          )\n        )\n      )\n    )\n    (4): NoResidual(\n      (model): Sequential(\n        (0): LinAct(\n          (block): Sequential(\n            (0): Linear(in_features=784, out_features=784, bias=True)\n            (1): Sigmoid()\n          )\n        )\n        (1): LinAct(\n          (block): Sequential(\n            (0): Linear(in_features=784, out_features=784, bias=True)\n            (1): Sigmoid()\n          )\n        )\n      )\n    )\n    (5): Linear(in_features=784, out_features=10, bias=True)\n  )\n)",
    "test_output_deep": {
        "__ndarray__": [
            [
                … "dtype": "float32",
        "shape": [
            10,
            10
        ],
        "Corder": true
    },
    "model_deep_residual": "DeepMNISTNet(\n  (model): Sequential(\n    (0): Linear(in_features=784, out_features=784, bias=True)\n    (1): Residual(\n      (model): Sequential(\n        (0): LinAct(\n          (block): Sequential(\n            (0): Linear(in_features=784, out_features=784, bias=True)\n            (1): Sigmoid()\n          )\n        )\n        (1): LinAct(\n          (block): Sequential(\n            (0): Linear(in_features=784, out_features=784, bias=True)\n            (1): Sigmoid()\n          )\n        )\n      )\n    )\n    (2): Residual(\n      (model): Sequential(\n        (0): LinAct(\n          (block): Sequential(\n            (0): Linear(in_features=784, out_features=784, bias=True)\n            (1): Sigmoid()\n          )\n        )\n        (1): LinAct(\n          (block): Sequential(\n            (0): Linear(in_features=784, out_features=784, bias=True)\n            (1): Sigmoid()\n          )\n        )\n      )\n    )\n    (3): Residual(\n      (model): Sequential(\n        (0): LinAct(\n          (block): Sequential(\n            (0): Linear(in_features=784, out_features=784, bias=True)\n            (1): Sigmoid()\n          )\n        )\n        (1): LinAct(\n          (block): Sequential(\n            (0): Linear(in_features=784, out_features=784, bias=True)\n            (1): Sigmoid()\n          )\n        )\n      )\n    )\n    (4): Residual(\n      (model): Sequential(\n        (0): LinAct(\n          (block): Sequential(\n            (0): Linear(in_features=784, out_features=784, bias=True)\n            (1): Sigmoid()\n          )\n        )\n        (1): LinAct(\n          (block): Sequential(\n            (0): Linear(in_features=784, out_features=784, bias=True)\n            (1): Sigmoid()\n          )\n        )\n      )\n    )\n    (5): Linear(in_features=784, out_features=10, bias=True)\n  )\n)",
    "test_output_deep_residual": {
        "__ndarray__": [
            [
                … "dtype": "float32",
        "shape": [
            10,
            10
        ],
        "Corder": true
    },
    "model_deep_residual_linnormact": "DeepMNISTNet(\n  (model): Sequential(\n    (0): Linear(in_features=784, out_features=784, bias=True)\n    (1): Residual(\n      (model): Sequential(\n        (0): LinNormAct(\n          (block): Sequential(\n            (0): Linear(in_features=784, out_features=784, bias=True)\n            (1): BatchNorm1d(784, eps=1e-05, momentum=0.1, affine=True, track_running_stats=True)\n            (2): Sigmoid()\n          )\n        )\n        (1): LinNormAct(\n          (block): Sequential(\n            (0): Linear(in_features=784, out_features=784, bias=True)\n            (1): BatchNorm1d(784, eps=1e-05, momentum=0.1, affine=True, track_running_stats=True)\n            (2): Sigmoid()\n          )\n        )\n      )\n    )\n    (2): Residual(\n      (model): Sequential(\n        (0): LinNormAct(\n          (block): Sequential(\n            (0): Linear(in_features=784, out_features=784, bias=True)\n            (1): BatchNorm1d(784, eps=1e-05, momentum=0.1, affine=True, track_running_stats=True)\n            (2): Sigmoid()\n          )\n        )\n        (1): LinNormAct(\n          (block): Sequential(\n            (0): Linear(in_features=784, out_features=784, bias=True)\n            (1): BatchNorm1d(784, eps=1e-05, momentum=0.1, affine=True, track_running_stats=True)\n            (2): Sigmoid()\n          )\n        )\n      )\n    )\n    (3): Residual(\n      (model): Sequential(\n        (0): LinNormAct(\n          (block): Sequential(\n            (0): Linear(in_features=784, out_features=784, bias=True)\n            (1): BatchNorm1d(784, eps=1e-05, momentum=0.1, affine=True, track_running_stats=True)\n            (2): Sigmoid()\n          )\n        )\n        (1): LinNormAct(\n          (block): Sequential(\n            (0): Linear(in_features=784, out_features=784, bias=True)\n            (1): BatchNorm1d(784, eps=1e-05, momentum=0.1, affine=True, track_running_stats=True)\n            (2): Sigmoid()\n          )\n        )\n      )\n    )\n    (4): Residual(\n      (model): Sequential(\n        (0): LinNormAct(\n          (block): Sequential(\n            (0): Linear(in_features=784, out_features=784, bias=True)\n            (1): BatchNorm1d(784, eps=1e-05, momentum=0.1, affine=True, track_running_stats=True)\n            (2): Sigmoid()\n          )\n        )\n        (1): LinNormAct(\n          (block): Sequential(\n            (0): Linear(in_features=784, out_features=784, bias=True)\n            (1): BatchNorm1d(784, eps=1e-05, momentum=0.1, affine=True, track_running_stats=True)\n            (2): Sigmoid()\n          )\n        )\n      )\n    )\n    (5): Linear(in_features=784, out_features=10, bias=True)\n  )\n)",
    "test_output_deep_residual_linnormact": {
        "__ndarray__": [
            [
                … "dtype": "float32",
        "shape": [
            10,
            10
        ],
        "Corder": true
    }
}